reward/save/model_7dim.pt (torch, 539540 bytes, 8 tensors)

net.0.weight f4 [32, 1, 3, 3]
00000000: c72c 50be 5e0f 29be 8b28 e9bd 410f 813e
00000010: 98ec 3bbe bde6 9bbe 88f1 853e 5650 2c3d
00000020: 90ad 663d 3650 06be bb9c 053e 810f 49be
00000030: 6401 8a3c 1b57 2bbe 3867 b03e d090 8abe
00000040: 2af6 35bd d5c5 cbbc f313 cf3e b63a 743d
00000050: c2e2 c63b ec97 683e c0f7 b9bd dec5 a93e
00000060: 58ff 943d f6ec c0bb 40c4 a1be 6617 943e
00000070: 6977 1dbe e73f 98be 1ecc 9f3e 9e94 be3e
00000080: 3894 283e 1a23 953e 3079 b33e babf 043e
00000090: f917 31be ef53 ef3d 6e05 87be 8535 0e3e
000000a0: 767a b73c a67b 77be cc18 963e 6a3b a23e
000000b0: d250 89be db13 75bd a64b 58be 0982 aebd
000000c0: 4e1b 0a3d c2b4 443d c585 493e 15f9 d2bd
000000d0: 9b3f 653e a81a 4dbe be5d debd 0321 1dbe
000000e0: 7618 4ebe d650 483d 7f8a d73e 10fe 713e
000000f0: 4020 78be c2c7 c93e cf2f 5fbe 8783 8c3e
00000100: 437a 78be 0af5 83be 09ec f2bd 969c cfbb
00000110: a5d8 5cbe 9d5b 81be c28e d9bc 9d7e 8bbe
00000120: f7fa be3e 5ffc 603d c3b4 bf3e d4bf 2a3d
00000130: 1114 87bd 85b7 333c e3d4 c7bd 0088 3dbe
00000140: 93b7 c1bc 3def 3c3e c4ad 4abe c4be 06be
00000150: b9c6 123e e8dd 41bd ef22 05be b0ca 60be
00000160: e31f 3bbe 45d3 37be 7036 063e 899a 94be
00000170: b08e 0dbe 5bb7 cd3e bd2b b3bd 4b50 993e
00000180: 2f94 bf3e bf84 a43e 727e 40bc be33 f73d
00000190: 7115 29be d7ce f4bc af30 9abd ab11 32be
000001a0: be80 353e 701b 37bc 7103 143e 4d19 3c3e
000001b0: 5dfb 90be 4fdb 1e3d 0dd8 593c 1558 443e
000001c0: 7f6a a83c 8321 9a3e a061 9f3e 3c3a 063e
000001d0: 3ece 2e3e b67a 463d 3fb0 1f3d 0bf5 f93d
000001e0: 2ee0 64be 47f5 8ebe 1f70 723d 1a53 073e
000001f0: e679 efbd a8b7 98bc f31d 933e d28e 16bd
00000200: 88fa ba3d 2d80 35be 233a 9b3e 2a5a a93e
00000210: 04a4 02be bffd 063e 8bc5 a73e f2e7 cd3e
00000220: 4f0e 9b3d c4dd 663e 3fbb 043b cbf4 f6bd
00000230: 7be5 f63d 7fe2 313e e810 dc3d 3419 55be
00000240: 3b00 643e 5705 75be c0ac 91be 9dfe 813d
00000250: 46ef a0bc 7035 9a3e be09 a53e f845 ba3e
00000260: 7b75 693d 1e60 6cbe ea9f 713c 0a74 75bb
00000270: 1b89 d1bd 7c58 2a3e 58c3 2abe e639 a3be
00000280: 6c79 8fbd f341 8c3e 8e34 63bd 7d8f 033e
00000290: 79da 61be 6612 2a3e fc33 853e 2a73 c7bc
000002a0: 1959 a5be 232e 44be d15c 3e3d a76c 20bc
000002b0: 5397 733c 441f 21be f203 6f3e 1037 3b3e
000002c0: 1df8 173e bc0e 943e f2d4 64be 0f6e 8f3e
000002d0: 1875 8ebe 20da 3a3e e893 bfbd 4ad2 863e
000002e0: 35f7 a13e d886 22be ee0a 0a3e b6cc b53e
000002f0: a697 933e 02db 41be f0f3 73be 5191 dfbd
00000300: bed7 073e 10e5 1d3e dba0 993e a7a0 dabb
00000310: a080 843e 09e0 91be cd66 513e 5a4f 6cbe
00000320: 6e1a 2e3e 39a3 a13e f76f af3e 77e1 853e
00000330: b459 873e 0116 a43e 00ff 8e3d 47b0 b03e
00000340: 8ae1 c53e cedc 133e defe 073e dbe2 24be
00000350: 93f1 8cbe b172 a9bd b494 56bd 14e2 f93c
00000360: 7265 213e 8422 8f3d 9b35 8b3d b9a1 38bd
00000370: 4041 8dbe 1a57 bf3e 0769 353d f47e 2b3e
00000380: 2f27 923e cd7c a03e bf16 80bd 442f 69be
00000390: 8f3a 503e f650 c13e 27ec 4cbe fdea 373e
000003a0: e953 69be 2305 8d3d e7a4 09bd 52e5 8abe
000003b0: 2022 2dbe ef45 b43d 8703 443e c274 cebd
000003c0: 635a 7d3c a2da 6dbe da73 d63d ebc1 8abe
000003d0: 1131 75bd d193 eabd 012b 413d 7414 903e
000003e0: ce6c 8bbd 01dc e33e da67 6d3e ae1f 863e
000003f0: 0160 493e c903 6ebd 7b91 9bbe 24ab b5bd
-0.20329581 -0.16509768 -0.11384686 0.2520695 -0.18351972 -0.30449477 0.26160836 0.0420688
0.056317866 -0.13116536 0.13048069 -0.1963482 0.016846366 -0.16732447 0.3445375 -0.27063608
-0.044424213 -0.024874607 0.40444908 0.059626304 0.006069512 0.22714204 -0.09080458 0.33158773
0.072752655 -0.005887623 -0.3159504 0.28924102 -0.15377583 -0.29736254 0.31210417 0.3722276
0.16462791 0.29128343 0.35053396 0.12963763 -0.17294301 0.11685931 -0.2637133 0.13887604
0.022397261 -0.24168262 0.29315794 0.31685954 -0.26819474 -0.05983339 -0.21122608 -0.08520896
0.033717446 0.048023947 0.19679935 -0.10301415 0.22387545 -0.200297 -0.10857724 -0.15344624
-0.20126519 0.048905216 0.42097852 0.23632073 -0.24231052 0.39410216 -0.21795581 0.27444097
-0.24265389 -0.25772887 -0.118614264 -0.006335805 -0.21567018 -0.25265208 -0.02655733 -0.27245036
0.37300846 0.05492818 0.37442598 0.041686848 -0.06595624 0.010969047 -0.09757402 -0.18508911
-0.023647105 0.18450637 -0.19792849 -0.13158709 0.14333619 -0.047330767 -0.13001607 -0.21952319
-0.18273883 -0.17951687 0.13106704 -0.2902415 -0.13823962 0.40178952 -0.08748577 0.2994407
0.37417743 0.32132527 -0.011748897 0.12070416 -0.16512085 -0.029883785 -0.07528817 -0.17389552
0.17724892 -0.011175975 0.14454438 0.18369026 -0.28316775 0.038783368 0.013296139 0.19174226
0.020558594 0.30103692 0.3112917 0.13108152 0.17070863 0.04845687 0.03898644 0.12204941
-0.22351143 -0.27921507 0.05918896 0.13215294 -0.11693172 -0.018642262 0.28733787 -0.036757298
0.09129816 -0.17724676 0.30317792 0.33076602 -0.1275788 0.13182734 0.327679 0.40216023
0.075710885 0.22545534 0.002025321 -0.12058409 0.12055489 0.17371558 0.10745412 -0.20810395
0.22265713 -0.23927818 -0.2845211 0.06347392 -0.019645344 0.30118895 0.32233995 0.36381507
0.056996804 -0.23083541 0.014747599 -0.0037453198 -0.10231229 0.16635317 -0.1667608 -0.3188011
-0.07005581 0.27394065 -0.055470042 0.12847705 -0.22055997 0.16608581 0.26016223 -0.024346907
-0.3229454 -0.19158225 0.046475235 -0.00979153 0.0148676215 -0.15734583 0.23341349 0.18282723
0.14840741 0.2891749 -0.22346857 0.28013656 -0.2782371 0.1824727 -0.09354383 0.26332313
0.31633916 -0.15871751 0.13480732 0.35507745 0.28826636 -0.18931201 -0.23823524 -0.10916389
0.13265893 0.15419412 0.30005535 -0.0066719833 0.25879383 -0.28491238 0.20449372 -0.23077145
0.1700227 0.31569842 0.3426511 0.2614858 0.26435626 0.32048038 0.06982231 0.3450949
0.38648635 0.14439699 0.13280818 -0.16102163 -0.27528057 -0.08273829 -0.052387908 0.03050331
0.15761355 0.06989005 0.06797334 -0.045076106 -0.27588844 0.3737114 0.044289615 0.16747648
0.2854552 0.31345215 -0.062543385 -0.22771937 0.20334838 0.3775708 -0.2001196 0.17960735
-0.22785915 0.068857454 -0.03360453 -0.27128083 -0.16907549 0.08802401 0.1914197 -0.100808635
0.015463444 -0.23227933 0.10471316 -0.27101073 -0.059861246 -0.11453975 0.047160152 0.28140604
-0.06807862 0.44503787 0.23184147 0.26196045 0.19665529 -0.05810908 -0.3038443 -0.08870533

net.0.bias f4 [32]
00000000: 93cd 833e abf5 5a3e 577d 353d 375a 8f3e
00000010: 9a32 1b3e d165 d03d 7e98 f0bd 9ace 87be
00000020: 747c 24bd 5790 70be eea3 ae3d 0cae 573e
00000030: e411 98be af76 4d3e c380 3abe 3da8 78bd
00000040: 4084 cfbd df0d 96be 205c 1f3e 8934 cebd
00000050: a98f 89be dd69 f3bb 1351 3cbe fa25 19bd
00000060: e4f3 20bd ccda 0bbe 7404 9a3e 2bdd 83be
00000070: 2256 c4bd 8c6d 653e 12cf 1bbe c296 373e
0.25742778 0.21382777 0.044308987 0.27998516 0.15156022 0.1017567 -0.117478356 -0.26524812
-0.04015775 -0.23492561 0.08527361 0.21062487 -0.2970115 0.20064805 -0.18213181 -0.06070732
-0.101326466 -0.29307458 0.15562487 -0.10068614 -0.26867417 -0.0074283914 -0.18390302 -0.037389733
-0.039295092 -0.13657683 0.30081522 -0.25754675 -0.09586741 0.2240507 -0.1521571 0.17928603

net.3.weight f4 [64, 32, 3, 3]
00000000: 3eec b3bd 1b82 293d cb83 5a3d 9e05 b5bd
00000010: cc95 2b3c f120 9bbd 56a0 20be 569b bf3b
00000020: a1a8 41bd c189 773d 728b 89bd 53fb f0bd
00000030: a1b7 95bd e630 bbbd 701a a23b 2a86 adbd
00000040: ef24 a7bd 5579 05be 24e5 ec3b 767a a93d
00000050: adea 733c 1836 8dbd 0d57 253d 3ab7 2f3d
00000060: eeca 24bd c579 d73c 8df4 1d3d 103e b1bc
00000070: f7e8 853c 2aba 063c da6e e7bc 6236 aabc
00000080: d0a8 e2bc a5fc 8abc 553f b33d a340 ecbc
00000090: 8755 fa3a 5a4d dc3c 4777 3d3c 0140 3f3d
000000a0: 3f94 c43c 317a aebd aaf8 53bd 202e 633d
000000b0: 0645 943c d6a1 cf3c ab43 563d b17e 5ebc
000000c0: 6b82 b7bd 8360 0abe 5637 82bd 2340 91bd
000000d0: 158f 093c a9a9 083c 3e99 4f3d 307d 403e
000000e0: 5555 e4bd 56aa 30be b941 05bd f62a 15be
000000f0: 8f4f afbd ed48 3e3d d523 26be 493a 92bc
00000100: ebde eabc 003f 003b c56b 47bc 49ee f7bc
00000110: 2200 163d 81b3 3b3d 1044 3d3d 40d1 76bb
00000120: 0806 1ebd 64e7 1a3e 1e25 7f3c b395 88bd
00000130: bde2 b53c b227 953c c537 ecbc c550 8ebd
00000140: 2531 923c c542 24bd 4884 10bd d18e e83c
00000150: af1b 773b afc4 f43c 70b4 bf3c 3018 233d
00000160: 7e54 423c 340a 82ba 9f26 d43c bfcd b73a
00000170: 3818 1ebd e647 dbbc a648 acbc 9e6f 1dbd
00000180: afbb 16bd a7bc f13d 1aa7 ae3d da52 75bc
00000190: 750f 233d c742 703c dabb e93c 53ac 733b
000001a0: 3524 03bd a156 b53c 605a 533d 5331 653d
000001b0: 784e e53d 2279 9e3d e8e2 8c3d 9355 05bd
000001c0: 19c8 92bd 905b 80bd 412e 403d 36f8 0f3e
000001d0: 3455 353d 3af7 51bd 1301 c4bd a7dc 01be
000001e0: fab9 a0bd fe3b f83c 87ee 34bd 99ed abbd
000001f0: cdc5 a0bd e0ec aebd b523 813d 1f0c 4f3d
00000200: 41b3 863c 0d21 8b3d 16d9 b4ba 482a 233b
00000210: c4c5 ae3d 29ce 9a3d 9532 e53c e31d 2dbd
00000220: 9a92 903c 4de2 c43c ac60 423c 856f d4bb
00000230: 0b92 2ebc 75d2 b0bb 9c9c 8c3c 3644 0e3c
00000240: 1072 063d 5e06 c33d f91d 593d f990 48bd
00000250: 70c3 0ebd db44 0a3d 7de3 a03c 5673 d23d
00000260: c15d e23c 3051 4b3d 205d eb3c 717b 6e3d
00000270: 1d50 3f3d 38a3 e43b 0ea3 293d d6a2 2a3d
00000280: bea2 093c d986 2c3d 258b 42bd 00e0 eabc
00000290: 8a6c 2d3d ceea 0fbd 7754 93bd 64a9 aebd
000002a0: 7981 29bd faa6 073d 844d 43bd 8ade 43bb
000002b0: 118c 13bc 89bd 4f3d 46b3 8c3b c256 e63c
000002c0: 5635 82bc d1d8 473d 0fd1 a03d d4cb 663d
000002d0: bfe1 a03b 66a8 cb3d c37a b3bc 50d1 46bb
000002e0: a24c d5bb 181a f4bb bac4 f33c 9484 793d
000002f0: 7fff 923d dafb c43d f8b6 ee3d 30f3 bb3d
00000300: 7d43 08be a360 71be ceb1 b5bd d874 b2bd
00000310: 251b 0a3c 5103 44bb 7517 b53c 7f0b 513d
00000320: 5bf8 88bb cbc3 573d 52da 143d 7116 74bd
00000330: 1e5c fbbb fc2e d03d ad82 993d 8f0b c4bd
00000340: b34e b23d e26a 243d f8cd 52bc c6d1 81bc
00000350: 5c66 083c 2321 10bd b0ba b0bc 1954 d8bd
00000360: a587 683d ebf2 2abc 0020 2ebc 50fe d3bc
00000370: 0027 893a 7454 6b3d 0937 903d f60e ba3d
00000380: d2a6 4a3d 3040 f9bd 9ddc c63d 001e 343d
00000390: 7467 d4bd c68c 323d ea91 bcbd 17de b7bd
000003a0: af88 1a3d 63d5 50bd 3195 163d dd58 e6ba
000003b0: b7b0 6f3d 319f e2bd 5e54 83bd 1a3a e5bd
000003c0: f801 aabd 5827 93bb a03c b6bd ab5a 013d
000003d0: b41a 273e 4e2b 6f3d 1a73 dcbd ad39 8abd
000003e0: 1ff4 28be a075 18bc d39b 2b3d 6ad8 023e
000003f0: 56af 6abc 8a3b 39bb 6029 b8bc d086 7cbd
-0.08785294 0.041383844 0.053348344 -0.08838962 0.010472726 -0.075746424 -0.15686163 0.005847375
-0.047279958 0.060434107 -0.0671605 -0.11766686 -0.07310415 -0.09140186 0.0049469993 -0.084728554
-0.081613414 -0.13034566 0.007229464 0.08275311 0.014887494 -0.06895083 0.04036622 0.042899348
-0.04023259 0.026303181 0.0385633 -0.021636039 0.016346438 0.008223096 -0.0282511 -0.020777885
-0.027668387 -0.016966173 0.08752314 -0.028839415 0.0019098975 0.026892353 0.0115640825 0.0466919
0.02399647 -0.085194 -0.051750816 0.05546391 0.01809932 0.025345724 0.052310627 -0.01358001
-0.08960422 -0.13513379 -0.06358211 -0.07092311 0.00839593 0.008341231 0.050683253 0.18797755
-0.11149088 -0.17252478 -0.03253338 -0.1456717 -0.085600965 0.046456266 -0.16224606 -0.017850058
-0.028670749 0.00195688 -0.01217169 -0.03026499 0.03662122 0.045825485 0.046207488 -0.0037661344
-0.03857997 0.15127331 0.015572814 -0.06669178 0.022202844 0.018207405 -0.028835187 -0.06948999
0.0178457 -0.04010274 -0.035282403 0.028388413 0.003770571 0.029878942 0.023401469 0.03981799
0.011860965 -0.0009921254 0.025897322 0.0014023109 -0.038597316 -0.026767682 -0.021030735 -0.038436525
-0.036800083 0.11803561 0.08527966 -0.014973367 0.039809663 0.014664358 0.028531957 0.003718157
-0.03201695 0.022136034 0.05159986 0.055955242 0.11196607 0.07737948 0.068792164 -0.032552313
-0.07167072 -0.06267464 0.04691911 0.14059529 0.04427071 -0.051261164 -0.095705174 -0.12681828
-0.07847972 0.030302044 -0.04417279 -0.083949275 -0.078502275 -0.08541274 0.06305639 0.05054867
0.016442897 0.06793413 -0.0013797607 0.0024897028 0.085338145 0.07558853 0.027978221 -0.04226483
0.01764803 0.02403369 0.011863869 -0.0064830207 -0.010654937 -0.005396182 0.01716452 0.008683255
0.032823622 0.09522699 0.0530071 -0.04896638 -0.034854352 0.033757072 0.019639725 0.10275905
0.027632596 0.049637973 0.028730929 0.05822319 0.04670726 0.006977465 0.041415267 0.0416592
0.008400617 0.04212079 -0.04749598 -0.028671265 0.04233984 -0.035136037 -0.07193845 -0.085284024
-0.04138324 0.033118226 -0.047681347 -0.0029887282 -0.009005562 0.050717864 0.004293832 0.028117541
-0.015894573 0.048790757 0.07852375 0.05634673 0.0049097235 0.09944229 -0.021909123 -0.0030337162
-0.0065093795 -0.0074493997 0.029756892 0.060917452 0.07177638 0.096183494 0.11655992 0.09177244
-0.13306995 -0.2357202 -0.08871804 -0.087136924 0.008429323 -0.0029909203 0.022105912 0.051036354
-0.004179997 0.052676957 0.03634102 -0.059591714 -0.0076708933 0.101652116 0.074956276 -0.09572517
0.08706417 0.040140994 -0.01286649 -0.015847098 0.008325186 -0.03518785 -0.021573395 -0.10562915
0.056769986 -0.010433893 -0.010627747 -0.025878102 0.0010463893 0.057453588 0.07041747 0.09084885
0.0494755 -0.12170446 0.097100474 0.043973923 -0.103712946 0.043591283 -0.092075184 -0.08977907
0.037728008 -0.05098475 0.036763374 -0.0017574091 0.058518138 -0.110655196 -0.06412576 -0.111927226
-0.08301157 -0.004490774 -0.08898282 0.03158061 0.1631878 0.058390908 -0.107641414 -0.06749282
-0.16499375 -0.009305388 0.041896652 0.12777868 -0.01432403 -0.0028264248 -0.022480667 -0.061652005

net.3.bias f4 [64]
00000000: e318 263d 38fe 883c a814 83bc ff24 78bd
00000010: 365a 34bd 5ae7 4cbd 1eb7 57bd fe5e 613c
00000020: 64cb 11bd d743 303d f93e 6bbd 1e9f 003d
00000030: 777c 4ebd 2205 4fbd b27e 983d a442 303d
00000040: 2466 49bd 1e24 d83c be88 a93d 2f64 063d
00000050: 13bd b9bc 199b 423c 2b50 76bd 3009 163d
00000060: aea5 4a3c 99d0 1b3a 385d d0bc 4f04 033d
00000070: b769 32bd 0515 0ebc 01f5 37bd b284 2e3c
00000080: 5221 57bd 090b 47bd d8f0 1abd 8f37 fc3c
00000090: 5442 873d 6423 4abd 659a a53b 23ec 4b3d
000000a0: 466c 4d3c 8811 823d 3887 0e3d cb2f 303d
000000b0: fbe2 68bd 55f4 b5bc 2e76 d93b 572c 213d
000000c0: 0b62 173c 3c53 fe3b e4df 0cbd d964 babb
000000d0: 44cf 903d 9517 fb3c 99cf 47bd 431e 843d
000000e0: 6adf 77bd 0ac2 663b 9371 f5bb 72ab cb3c
000000f0: 072d 5bbd b4cf c93c b11c 053d 88c2 113d
0.040551078 0.016722783 -0.01600106 -0.060582157 -0.044031344 -0.05002532 -0.05266487 0.013755558
-0.03559436 0.043033447 -0.057433102 0.031401746 -0.050411668 -0.050542004 0.0744604 0.043032303
-0.049169675 0.02638441 0.082780346 0.032810386 -0.022673165 0.0118777985 -0.060135048 0.036629856
0.012368603 0.0005943864 -0.025435075 0.03198653 -0.04355785 -0.008672004 -0.04491139 0.010651754
-0.05252201 -0.04859451 -0.037827343 0.030788211 0.06604448 -0.049350157 0.0050538057 0.049785744
0.012538021 0.06351 0.034796923 0.04301433 -0.05685709 -0.022211233 0.0066364026 0.039348926
0.009239684 0.007761387 -0.034393206 -0.0056882915 0.07070783 0.030650893 -0.048781965 0.064510845
-0.0605158 0.003521087 -0.0074903457 0.024862025 -0.05350974 0.024635173 0.032498065 0.03558591

net.7.weight f4 [64, 1792]
00000000: 4a49 e33c 1196 b73b 571b 0c3d 8be7 ce3c
00000010: 8dde a33c 1e27 eebc c69b 543c 38ff bfbb
00000020: 1c83 ae3c 0801 dabb 2c2f ed3c fdf1 243d
00000030: 9e47 793d 5bc9 b53c c3c2 a03c aad5 20bd
00000040: 335b f8bb 175d 883a 4a4b 08bb 1c9f 37bc
00000050: 2640 07bd f017 cbbc 0753 f13c cd2e f43b
00000060: c071 873c 8b02 16bc 8202 743d 5197 f5bb
00000070: 604c c8bc 5abf 803a 4570 03bc e2db f63c
00000080: 1dd5 ab3a f878 3d3c 4570 613b 720d 58bc
00000090: a09f 0d3d 1ad7 cfbb 765d 03bd cbfd 603d
000000a0: ac8b 293d 0f31 e33b a5a8 2abc fc8c 86bb
000000b0: 018d 9e3c 47dc e5bc 0b77 9abb 052b 013c
000000c0: 3dbb bbbc 4b19 c1bc 6e3b 663c 60c9 df3c
000000d0: e274 4ebc 5869 083d d08a 903d c91d 92bc
000000e0: a1c7 fabb 7ce5 b53c d542 003d 3bdb 2e3d
000000f0: 5e5f dd38 6d36 41bc 7fc7 693b a443 603c
00000100: 3177 093d 9633 e33b 234c f33c a464 053d
00000110: dc09 433d 983f e43a 4846 f3ba 0ec4 93bc
00000120: 8ebc f53b 176d 9b3c 74c3 6d3c 6d54 8f3b
00000130: 1121 893b ae1c b0bc 939a c1bc 281e e83c
00000140: e464 fd3b 3b93 e43c b39d 8f3c 7e75 083d
00000150: d9e9 debb d8fb ec3b 9f34 703c 6c66 1b3d
00000160: fdbe 5e3c d510 1cbc 1928 42bb a40d 3f3d
00000170: 7f53 103d 0ee8 cbbb 0c8d 7e3c bdfc 493d
00000180: bc49 c53d 368b 963c 492e a3bd 7499 98bc
00000190: 90ed edbc 49de babc 1ce0 843c 59cc a33c
000001a0: b0d5 013d ea1e 80bc b7cd 91bc 1326 353d
000001b0: 8cdc 1d3d 0ce5 b73c a412 1c3d 3a5a 723c
000001c0: 847a b3ba 6bdc a03c 46d0 313d fee3 063c
000001d0: 2239 293d 21b5 6e3c eb7d 813c ac0f 08bb
000001e0: 851b b03c 7fa6 473c 2bf1 ee3c 5ce1 fd3c
000001f0: 9436 093d 66cc c53c 6cce 963c e3b5 48bc
00000200: 9a23 8d3b 3250 07bc 93a1 f13b 461f 0ebb
00000210: 4d14 bb3a 85fe e43b bd9c e4bc edd4 6ebc
00000220: c428 85ba ae1e bcbc 8e98 aa3c ab3a 0d3d
00000230: 2012 8b3b 47de 243c 48f2 323c 1abe 73bc
00000240: 31c4 873a 18e9 11bd 47b6 d3ba b82e ebbc
00000250: 5011 8fbc a535 debc 4726 97bb 488d 4a3c
00000260: 6337 2e3d 2318 4a3d 91f3 a7ba e578 4b3b
00000270: a4cb d1bc 1414 143c 938d dd3c cbc4 0a3c
00000280: 4c51 b338 4f40 c6bc 38b2 273c 982b 2c3d
00000290: eb24 efbc 6df7 643c 2abc 4d3d b91b 9e3c
000002a0: c193 f53c d548 84bc a04b ecbc eb85 1c3c
000002b0: 64db 88bd aa16 073d 9b5c 23bd 13a6 fb3b
000002c0: 22fa 6fbc 7d42 c8bc e797 e2bc 7e1a 37bc
000002d0: cd79 87bc 6a72 1a3d 8d91 4b3d d798 023d
000002e0: 1769 d63b 47eb 66bc 6205 82bc a058 853d
000002f0: 6ca6 d43c 5f46 f33c bb37 f9ba 478e 343d
00000300: 9c5f 973b 0a10 aabc f065 6d3a 862f 363d
00000310: b503 40bc 5098 f63b 580b bbbc a2bc c8bc
00000320: 9608 81bd fe81 e2bc 8205 1c3d 5781 e33c
00000330: 3c3a 15bd 0274 adbc 2c9b 393d 83f7 003d
00000340: a957 4d3c f4a0 7c3b de9b cebc 8fc2 88bc
00000350: b8f1 9a3c 0b08 75bd 7a5e e4bd 21ce 96bd
00000360: ba80 ef3c 9ac6 503d ae27 0b3d 74ca 08be
00000370: d322 5fbd 51b2 4abd d537 5abd ba71 b1bc
00000380: d197 bc3d 5c96 9dbc 417d b539 9fae be3b
00000390: 2d32 9cbd e81e 7a3c 3360 65bd b29b 2abd
000003a0: 2eba d73b 333e d3bc 7825 15bc 67bb 363c
000003b0: 12bc dd3c 734b 6b39 272d 8c3d 6f7a 07bd
000003c0: 79d9 e2bc 40b1 713c c861 2bbd 2953 9b3d
000003d0: e1f0 97bd ffb8 b6bb 5cda 0cbb 8c91 d7bb
000003e0: 3e95 523d dedd 3b3c aebf 623d 5dce 193c
000003f0: 5870 d7ba 6c8b d73c 8ac2 ea3c 8454 543c
0.027744908 0.005602606 0.03420576 0.025256893 0.020003581 -0.029071387 0.012976592 -0.005859282
0.021302752 -0.006652955 0.028953157 0.04026984 0.060859315 0.02219074 0.01962412 -0.039266266
-0.007579231 0.001040372 -0.002079683 -0.011207368 -0.03302016 -0.024791688 0.029458536 0.007451868
0.016533732 -0.00915588 0.059572704 -0.007494845 -0.024450481 0.0009822652 -0.008022373 0.030134145
0.0013109777 0.011564486 0.0034399193 -0.013186799 0.03457606 -0.006342781 -0.032071553 0.054929536
0.041392967 0.0069333385 -0.010416185 -0.004106162 0.019354345 -0.028059138 -0.004713898 0.007883792
-0.02291643 -0.023571631 0.014052255 0.027317703 -0.012601109 0.03330359 0.070577264 -0.017836468
-0.007653192 0.022204153 0.031313736 0.042689543 0.00010555865 -0.011792761 0.0035671887 0.013688002
0.033560935 0.0069336398 0.02969939 0.03256668 0.047616825 0.0017413972 -0.0018560374 -0.018037822
0.007499284 0.018972917 0.014511932 0.004374078 0.00418485 -0.02149805 -0.023633277 0.028334692
0.0077329744 0.027902236 0.017531252 0.033315174 -0.006802779 0.0072321706 0.014660983 0.037939474
0.01359534 -0.009525497 -0.002962595 0.046643868 0.035235878 -0.0062227314 0.015536558 0.049313296
0.09633204 0.018376928 -0.079678126 -0.01862786 -0.029043943 -0.022811072 0.016220145 0.019994901
0.03169793 -0.015639741 -0.017798288 0.044225764 0.038540408 0.022448085 0.038103715 0.0147920195
-0.0013693129 0.019636353 0.043411516 0.0082330685 0.04131425 0.014569552 0.015807113 -0.0020761294
0.021497497 0.012185692 0.029167732 0.030991249 0.033499315 0.024145316 0.018408976 -0.012250396
0.0043072226 -0.008258866 0.0073739975 -0.002168612 0.0014273018 0.006988349 -0.02790677 -0.014577133
-0.0010159244 -0.022963848 0.020824697 0.03447978 0.004244104 0.010062761 0.010922022 -0.014876867
0.0010358152 -0.035622686 -0.0016152345 -0.0287088 -0.01746431 -0.02712519 -0.0046127173 0.012362786
0.04253329 0.049339425 -0.0012813677 0.00310474 -0.025609799 0.00903799 0.027045047 0.008469771
8.550528e-05 -0.024200587 0.010235362 0.04203376 -0.029192409 0.0139750065 0.050228275 0.019300329
0.029977681 -0.01614801 -0.028844655 0.009553413 -0.066824704 0.0329806 -0.039883237 0.0076797097
-0.014647039 -0.024445767 -0.027660323 -0.01117575 -0.016537571 0.03770677 0.049699355 0.03188404
0.0065432894 -0.01409418 -0.015871707 0.065110445 0.025958262 0.029696641 -0.0019013801 0.044081
0.004619552 -0.020759601 0.00090560224 0.044478916 -0.011719634 0.0075254813 -0.022832558 -0.02450401
-0.06300466 -0.027649876 0.03809119 0.027771635 -0.03643249 -0.02117348 0.045314 0.031486046
0.012533107 0.0038548084 -0.025220808 -0.016694335 0.018914089 -0.059822123 -0.111508325 -0.07363535
0.029236186 0.05097065 0.03397339 -0.1335848 -0.05447657 -0.049486462 -0.0532759 -0.021660674
0.09208644 -0.019236736 0.00034616332 0.0058191563 -0.07626758 0.015266158 -0.055999946 -0.04165239
0.0065834736 -0.025786495 -0.0091031715 0.011153079 0.027067218 0.00022439453 0.068445496 -0.033075746
-0.02769159 0.014751732 -0.0418413 0.07584221 -0.07418991 -0.0055762525 -0.0021492457 -0.00657863
0.05141186 0.0114664715 0.05535858 0.00938758 -0.0016436679 0.026311599 0.028657217 0.012959603

net.7.bias f4 [64]
00000000: bbf5 9c3b 7865 debc 30aa 203c d094 c8bc
00000010: 523b ad3b 0036 2abc 89ed 043b c2cd 123d
00000020: f388 fbbb 923d 183d 79c6 d2bc 9069 203c
00000030: 0a4d 9d3a 8819 bf3b aa99 31bc daa2 23bc
00000040: 201f e2bb e3d5 3ebc 79a1 1bbb 4ff6 083d
00000050: 6e3e 3e3b 69bd 59bc 44bc 8eba bbc5 083c
00000060: 9149 60bb 9c66 a33c 2076 3a3c fad1 16bb
00000070: 3d32 2b3c 22dc d13c e29c 5b3c fc08 a23a
00000080: 49c4 943c ca62 34bc 7b58 58bc dd5e f23b
00000090: 084f a4bc 7443 233c def4 893c 9161 b83a
000000a0: f3ba 4a3c c1df 81bc 141e 563b 913e 0d3c
000000b0: da5f fe3b 7a94 3dbc 7bef d3bc 8db6 4d3d
000000c0: c14d 85bb dcce 823c 205a 80bc 05f3 c1bc
000000d0: bf9b 86bc 3dad 5f38 edda a83b 19e0 853c
000000e0: baeb 94bc adf1 7d3c 5874 84bc 13b8 373c
000000f0: d486 0b3a e2ab 793c b523 cd3c 6a42 93bb
0.0047900355 -0.027147993 0.009806201 -0.024485022 0.0052866125 -0.010388851 0.0020283184 0.035840757
-0.0076762377 0.037168093 -0.025729405 0.009790793 0.0012001109 0.005831901 -0.010839859 -0.009987557
-0.006900683 -0.011647674 -0.0023747368 0.033438023 0.002902891 -0.013289788 -0.0010889848 0.008347924
-0.0034223536 0.019946389 0.011380702 -0.002301334 0.010448989 0.025617663 0.013404103 0.0012362297
0.018160002 -0.011009881 -0.013204689 0.0073965625 -0.020057216 0.009964813 0.016840395 0.0014067163
0.012373674 -0.015853764 0.0032671737 0.008620874 0.0077628912 -0.011571044 -0.02587103 0.050222922
-0.004068107 0.015967779 -0.015667975 -0.023675451 -0.016431687 5.3328684e-05 0.005153051 0.01634221
-0.01817881 0.0154995145 -0.016168758 0.01121332 0.000532252 0.015238734 0.02504144 -0.004494001

net.9.weight f4 [7, 64]
00000000: ac53 ae3d fd9b 1f3d 3b2f 27be 85e0 89bd
00000010: 5203 1d3e 3932 ff3c 335a 92bd 6913 fe3c
00000020: f132 4e3d 087e e33d b882 61bd 82e3 e9bd
00000030: 6021 34bb 86b3 f9bd dec1 de3d 1075 d13d
00000040: 6e73 aebd a0b1 51bd e340 863c 70ff 73bd
00000050: bc99 4cbe 5411 78bc 615e b23d 7cd7 b73d
00000060: 86e6 42be 3def 403d 2ab6 a1bd ce13 973d
00000070: 5201 893d d7f4 76be e531 2fbe ee18 8b3d
00000080: 16b1 fc3c 3498 883a d00d dfbd a213 fbbd
00000090: 33f7 2abd f727 ce3d 513e 05be bdb3 87bd
000000a0: 49e5 963d 4dea dc3d 6ac0 d1bd 2789 e73d
000000b0: 2d6b 20be 046c 293d 30b7 bdbd 6de8 1a3e
000000c0: 504c 10be 432b 45bd caab b0bd 4383 5c3b
000000d0: d440 b93d f740 923c f581 aabd 1978 50be
000000e0: 63a3 71bd f79a 0cbd e675 d0bc 4c9f d73d
000000f0: 7b5e ae3d 5aa2 123e 1005 9c3d e236 a3bd
00000100: 2e8c 1d3e 9acf bdbd 18a5 23be 10c6 3abc
00000110: 3564 59bc cbaa b4bd 0182 cb3d 1ecf 8b3d
00000120: 7aba e83c b963 80bd 7ae6 a8bd a053 423d
00000130: 2b5a 4dbd 56b7 f23c 96eb 66bc 7c5a 6fbd
00000140: e535 fdbd 6e82 c6bd 5c87 04bc f53a 67bd
00000150: 5d40 69bc 119a e23d 9d6a c13d cf27 34ba
00000160: 87a0 a73d 9432 6f3d 0f4f 9f3d 313a 023d
00000170: f5cb a73d 7434 053e 4d03 dfbc edee cf3c
00000180: 2b86 d93c 6dd9 e83c 348c 853d a25e 18ba
00000190: 1d40 163e acb6 e33d 279a 2c3d 2f82 aebd
000001a0: d49d 44be abdb aa3d 7e80 c93d d604 21be
000001b0: c67d ac3c f75d 873d 57a4 aabd b0ab 483d
000001c0: 66c4 2f3d 59db 1c3c 1e26 b73d e499 0dbe
000001d0: a225 413d 0537 d4bb f6d6 0eba e78c 2c3e
000001e0: 4b79 04be f095 e5bd 8c95 f8bc d942 b73d
000001f0: fef1 1dbe cb11 a03c f053 99bd 3b0a 373d
00000200: fa15 37be 01ab 513d 89d1 f9bc 990e 913d
00000210: 81ff 4abe b9dc b33d 0577 683d 7d83 c33c
00000220: 0e04 edbc d5be 06be c6ee 413d 06aa 4f3d
00000230: 806e dc3d 9dd2 f73d a341 9ebb babb 8b3b
00000240: f1cc db3c 9e6b c63d 4090 bd3d 9a0d 533d
00000250: 67bb fabd c0b5 f0bd d0fb e73d 264b 693d
00000260: 04dd efbd 4b94 b2bd 4b72 3c3d a795 c73c
00000270: e69d 663d a5f8 57bd c605 f93d 9088 e7bd
00000280: 210d 9dbc 59aa eb3d a64b 923d a759 f6bb
00000290: ce04 0c3d 0286 dbbd bebb 00be 70e4 7c3d
000002a0: 1e0b 8bbd 4266 0fbd fbe7 5f3c 1017 b0bd
000002b0: 28b0 ed3d fe4a 4ebc 930b 03bd 6570 57be
000002c0: 9cfb 61bd 0293 fbbc 06af 163c 5641 273c
000002d0: 7096 0cbd cd72 fd3d 5bab 72bd 5221 9d3d
000002e0: fdcc 0cbd f51e f8bd 190e 8fbd d882 f7bd
000002f0: 41e8 e53d 0248 f23c cdd6 663d d790 95bc
00000300: e061 b5bd 26ea bc3d cfcf 283d 6061 a3bc
00000310: 2311 20be 9f25 a6bd 1d33 0cbd 4041 a4bd
00000320: 020f 1cbc 5d1f 90bc f83d ad3d ec00 243d
00000330: 6a44 333d 4c1c d8bc f901 f1bb d01a 1c3d
00000340: 8963 bbbd dd8a 5d3c f0cf 3a3d 4ec2 ae3d
00000350: 291f f3bb 65f3 df3d 464f 493d 8548 f7bd
00000360: 13ef 6fbc f461 273e 5d96 11be 7d2d 4dbc
00000370: b40d aebd 91ad 913c d406 1bbe 5c43 deb9
00000380: 1c48 5ebd 3e62 c8bd f79c e63d f378 a63c
00000390: b4ee 17be 773b 813c df24 033e 62a3 c8bc
000003a0: 0f3d b83d 5b42 803d f2dd 53bd c271 3fbe
000003b0: 1ee4 83bd 7060 863d 99c2 ef3d eb2f a3b9
000003c0: dbbf 2ebd 5748 453d de0b 10bd 53e0 5f3d
000003d0: 19da 96bd 6c1a 58bd 256d 03be 4309 d8bd
000003e0: ab11 e0bd 3082 6f3d 913f e93c 06cc ec3d
000003f0: 6368 c8bd f9f9 203c cfd7 08bc d76e 03be
0.08512053 0.03896712 -0.1632661 -0.06732277 0.15333298 0.031151878 -0.071461104 0.031015115
0.05034155 0.11108023 -0.055056304 -0.11420347 -0.0027485713 -0.121924445 0.10876821 0.10227406
-0.0851811 -0.051194787 0.016388362 -0.059569776 -0.1998052 -0.01514085 0.087094076 0.08976647
-0.1903325 0.047103155 -0.07896073 0.07376824 0.06689705 -0.24116836 -0.17108877 0.06791864
0.03084616 0.0010421337 -0.108913064 -0.12259604 -0.041739654 0.100662164 -0.13012053 -0.06626079
0.073679514 0.10786877 -0.10241778 0.113054566 -0.15665884 0.041362777 -0.09263456 0.15127726
-0.14091611 -0.04813696 -0.08626516 0.0033647574 0.09045568 0.017853243 -0.083255686 -0.20358314
-0.05899371 -0.034327473 -0.025446843 0.1052843 0.085141145 0.14319745 0.07618153 -0.079694524
0.15385506 -0.092681125 -0.15980947 -0.011399761 -0.01326852 -0.08821639 0.09936906 0.06826614
0.028409231 -0.062690206 -0.08247085 0.047443032 -0.05013482 0.029628437 -0.014094254 -0.058435902
-0.12363795 -0.09692846 -0.008088913 -0.05645271 -0.014236537 0.11064542 0.09444163 -0.0006872387
0.08184915 0.058397844 0.07778751 0.031793777 0.081931986 0.1300829 -0.027223254 0.025382483
0.026553234 0.02842399 0.06520882 -0.0005812441 0.14672895 0.11118826 0.0421392 -0.08520924
-0.19200832 0.083426796 0.09838961 -0.15724501 0.021056067 0.06609719 -0.083321266 0.04899186
0.04291191 0.009573781 0.08942817 -0.13828236 0.04715503 -0.0064762854 -0.0005448902 0.16850625
-0.12936895 -0.11210239 -0.030344747 0.08948297 -0.15424344 0.019539734 -0.07486713 0.04468749
-0.17879477 0.051188473 -0.030495422 0.070828624 -0.1982403 0.08782334 0.05675413 0.02386641
-0.028932597 -0.13158734 0.047346853 0.050699256 0.10763264 0.12100718 -0.004829602 0.004264322
0.026831122 0.09688495 0.09256029 0.051526643 -0.122427754 -0.11753416 0.11327326 0.056956433
-0.11712077 -0.08719691 0.046007436 0.024363352 0.056302927 -0.05272736 0.12159304 -0.11305344
-0.0191713 0.115071006 0.07143335 -0.0075180116 0.03418427 -0.10718919 -0.12571618 0.061741292
-0.0678923 -0.03500963 0.013666148 -0.08598149 0.11605865 -0.012591122 -0.03199346 -0.21038969
-0.055171594 -0.030709747 0.009197002 0.010208448 -0.034323156 0.12375412 -0.05924545 0.07672371
-0.03437518 -0.121152796 -0.06985111 -0.12085503 0.112259395 0.029575352 0.056357194 -0.018257542
-0.08856559 0.09224348 0.041213807 -0.019943893 -0.15631537 -0.081126444 -0.034228433 -0.08020258
-0.0095250625 -0.01759308 0.08459085 0.04003994 0.043766417 -0.02638068 -0.0073549715 0.038111508
-0.09149844 0.013521877 0.04560846 0.085331544 -0.007419486 0.10935096 0.049147867 -0.12074379
-0.014644402 0.1634596 -0.14217515 -0.012523052 -0.084987074 0.017782958 -0.15139323 -0.00042393326
-0.054267988 -0.09784363 0.112604074 0.020321345 -0.14837152 0.015775425 0.12807034 -0.02449197
0.08996021 0.06262656 -0.051725335 -0.18695739 -0.06439994 0.06561363 0.117070384 -0.00031125484
-0.042663436 0.04816469 -0.035167567 0.05465729 -0.073658176 -0.052759573 -0.12834604 -0.105486415
-0.1094087 0.058473766 0.028472694 0.11562352 -0.09785535 0.009825223 -0.008352234 -0.12835251

net.9.bias f4 [7]
00000000: 1f8d 813d f88f c6bd ae7b 473d 6351 b7bd
00000010: 5d06 ff3b 4110 443d fc6f 113d
0.06325745 -0.096954286 0.048701935 -0.0895107 0.007782741 0.047867063 0.035507187
