reward/save/model_6dim.pt (torch, 539284 bytes, 8 tensors)

net.0.weight f4 [32, 1, 3, 3]
00000000: ce0b f9bd c30c b8be fdcf b5bd 04b2 6d3e
00000010: 81d5 943e 81a6 ce3e 8d5a 203e c2fe 653e
00000020: 27ea 343d d6c9 ad3d acf1 0d3e f961 de3d
00000030: 248d 32be 3919 f5bd 4e27 22be 4e5c a2bb
00000040: 64ca 823e d493 61bd ae47 303e ff4f 433e
00000050: fc9f 3a3e 91c9 03be f5f1 14be 52ea 993e
00000060: ae88 a33b 8e48 403e 73b5 b63e a8a0 5bbe
00000070: 6b9e d2bd 2fe9 abbd b6f3 9abe c72b 5fbe
00000080: 503d b33e d78a f5bd 6a5e a63e 94e8 bb3e
00000090: 9e03 22be 3457 2fbd cf5d a23d a1cb a43e
000000a0: a168 8c3e 384c 6b3d d5ee 593e 4dda 31bd
000000b0: 90b2 213e bb99 7dbe 679b 8ebe edec 983d
000000c0: f584 bdbd bb82 003e fdbd 75be 429f b13e
000000d0: b1e1 9bbc 6950 ba3d e9c1 623e 7d71 84be
000000e0: 92bb 94be 76d7 7d3e 6fae 743e 1212 053e
000000f0: 0fb2 b5bc b224 afbd 1542 353e 1b2c a4bd
00000100: af39 b33e 5bfd f73c 790d a8be dc6a 18be
00000110: 2d31 45be c8c6 953e 8dfe 91bd b069 943e
00000120: 5379 a93e d2a3 a73d e223 333e 0745 ab3e
00000130: ab94 a53e a10b 9a3e 34ab 4bbe e522 92be
00000140: 6333 9abe 6b60 993c 4cf7 3abe 45f2 b83d
00000150: e85c 15be 8c66 96be 7342 3d3e a6f9 63bd
00000160: 1f23 683e 4474 b1bc 6f16 9abe dcd6 1a3d
00000170: f772 6cbd 9084 f93c b40d abbd 146c 643e
00000180: ef15 a7be 71fe 2a3e e2c9 853e cd09 543e
00000190: f862 4c3e b44b dd3e beb9 8bbe 29f7 83be
000001a0: e252 363c 0115 43be f2b0 9abc b538 bb3e
000001b0: f1bd 9d3e 3ffb ef3d f2aa 433e fe43 963d
000001c0: 9658 5cbe 9db1 fd3d e922 03be 372e 5f3e
000001d0: 67d9 89bd 12dc 953d f64b 843d a4d5 26be
000001e0: bdbe e13b 6934 823e 2eb4 3ebe b36f 2b3d
000001f0: c8bc 2fbe c122 6cbe 1787 58be 4901 0dbe
00000200: 76e6 9b3e d73e 99be 6b4e 463d f604 82be
00000210: 36ab 92be 92f2 82bc 2702 9dbe e661 943e
00000220: 82f6 823e 66d3 c6bd 7f91 a7bd a2ba cbbd
00000230: c22b 92be 22fe f7bd 8d41 8e3e 0ae7 063e
00000240: 2ff3 b6bc ad36 403e 1449 28be 5d52 9a3e
00000250: 75cb ba3e 265b 5b3e 90b7 573c 2ff1 973e
00000260: 3040 493d a662 b3be d141 f73d 332e 0a3e
00000270: 8d92 91bd 0ba5 a5be 3c4f 713e c504 273e
00000280: 7b35 72be 0902 273e 2aac e13e c54f 68bd
00000290: 74cf c63d e9df f53d 7f95 483e 6f17 5cbe
000002a0: 7678 63be 93e5 53be 56a4 f7bc 3a24 a53e
000002b0: 354e 863e 625c b23e fb87 48be 1fa2 d1bb
000002c0: 1308 e23d 23f3 1e3e ea6b a23e 5e6d a03e
000002d0: 462b 20bc b558 05be 8ee2 76be 8975 5fbd
000002e0: 284b 1f3e 5ed4 77be 3581 833e 1db7 3abe
000002f0: dbc6 42be 3848 76be 270e 8fbe 302b f73d
00000300: 9356 cfbd f132 3fbd 600e a73e 5571 00bd
00000310: 4921 d43e fddf 563e 99f6 303e 704c 99be
00000320: 060e 2a3e d30b 3cbe f093 c93d 12e8 273e
00000330: d4fb d2bb a9d1 a2be 63e7 26be b368 503e
00000340: 4ba7 d2bc 997d 753e 2f12 6c3e 5ef0 dabd
00000350: fc34 873e e191 353d 841b 8dbe 1859 7f3d
00000360: 30a2 2f3d 123b 91be 3de2 853e 1d5f 883e
00000370: e658 f3bd 9cef 5c3d 4aca dfbd 6ae4 97be
00000380: 5458 88bd e987 57be c9f1 8d3e 17bd c0bd
00000390: 8b0d 9c3e 2594 253e effe abbe 550d 693e
000003a0: c168 a43e 4fb7 b8be 4852 31be e67d 25be
000003b0: 57b9 c0bd d463 a53e 839d 693e 3c09 7fbe
000003c0: e65b 8c3e 5e07 efbd 3545 a8bd 8264 4d3d
000003d0: 3bf9 673e c988 523e a265 a53e 07bd 773d
000003e0: 9854 5fbe 4bb8 9f3e e771 993e 156a 6bbe
000003f0: cdb2 babc e31a b63d 12a0 acbe 1af5 633d
-0.12160455 -0.35947236 -0.08877561 0.23212439 0.2906914 0.40361407 0.15659542 0.22460464
0.044168618 0.08485763 0.13861722 0.108585306 -0.17436653 -0.119677015 -0.15835306 -0.004954851
0.25545037 -0.05507262 0.17214844 0.19073485 0.18225092 -0.1286986 -0.14545424 0.30061585
0.0049906587 0.18777677 0.3568531 -0.21448004 -0.10284122 -0.083940856 -0.30264062 -0.21794043
0.35007715 -0.11989372 0.32493907 0.3670088 -0.15821692 -0.042807773 0.07928049 0.32186607
0.27423576 0.057445735 0.21282513 -0.04342108 0.15790772 -0.24765675 -0.27852938 0.07467065
-0.09253875 0.1254987 -0.23998256 0.34691817 -0.019028516 0.09097368 0.22144283 -0.25867835
-0.29049355 0.24789223 0.23894666 0.12995175 -0.022179632 -0.08551921 0.1770099 -0.08016225
0.35004947 0.030272176 -0.3282278 -0.14884514 -0.1925704 0.2925322 -0.0712863 0.28986883
0.33100376 0.08185543 0.17494157 0.334511 0.32339987 0.30086997 -0.19889528 -0.28542247
-0.3011733 0.018722733 -0.18258399 0.09030584 -0.14586222 -0.29375112 0.1848238 -0.055658005
0.22669648 -0.021661885 -0.3009524 0.037802562 -0.057726827 0.030458719 -0.08352223 0.22306854
-0.32633922 0.16698624 0.26130587 0.20706864 0.19959629 0.4322182 -0.27290148 -0.25774506
0.011128159 -0.19050981 -0.018883202 0.36566702 0.30808976 0.11717843 0.19108179 0.07337187
-0.21518168 0.12387393 -0.12806286 0.21794973 -0.06730919 0.07317366 0.06459801 -0.16292435
0.006889193 0.2543061 -0.1862342 0.04185457 -0.17161858 -0.23060133 -0.21145283 -0.13770021
0.30449265 -0.29930755 0.04841463 -0.2539441 -0.2864625 -0.015984807 -0.30665705 0.2898094
0.25578696 -0.0970829 -0.08182048 -0.09947707 -0.2854901 -0.12109019 0.27784386 0.13174072
-0.022332756 0.18770857 -0.16434127 0.30140963 0.3648335 0.21421489 0.013166323 0.29676196
0.04913348 -0.350362 0.120731 0.13494186 -0.071080305 -0.3235248 0.23565382 0.16310413
-0.23653214 0.1630937 0.44076663 -0.0567167 0.09707537 0.12005598 0.19588278 -0.21493314
-0.22213921 -0.20693044 -0.030229729 0.322542 0.26231542 0.34836107 -0.19583122 -0.0063975
0.11036696 0.15522437 0.31722957 0.3133344 -0.009775942 -0.1302212 -0.24109861 -0.05455545
0.15556014 -0.24202105 0.25684515 -0.18233915 -0.1902117 -0.24050987 -0.27940485 0.12068784
-0.101239346 -0.04667944 0.32628155 -0.03135808 0.41431645 0.20983882 0.1728157 -0.2994113
0.16606912 -0.18363886 0.0984267 0.16397122 -0.0064387117 -0.31800583 -0.16299205 0.2035244
-0.025714537 0.23973693 0.23053811 -0.10690378 0.2640761 0.044328574 -0.27560055 0.062340826
0.042879283 -0.2836538 0.2614917 0.26635066 -0.118821904 0.053939447 -0.109272555 -0.29666454
-0.06657472 -0.2104794 0.2772353 -0.09411066 0.30479082 0.16169794 -0.33592936 0.22758992
0.3211117 -0.36077353 -0.17316544 -0.16161308 -0.09410351 0.32302725 0.22813992 -0.24905866
0.27413863 -0.11671327 -0.08216325 0.05014468 0.22653668 0.20559992 0.32304102 0.060483005
-0.21809614 0.31195292 0.29969713 -0.22989686 -0.022790337 0.08891847 -0.33715874 0.05565367

net.0.bias f4 [32]
00000000: 7616 353e 475f 923e a348 62be 38f4 463d
00000010: b248 44be 4969 3b3e b687 883c 69e0 fbbb
00000020: 487d 6a3e 8d19 853e fdbb 213e 2dc1 b73b
00000030: f053 d3bd d918 663e 6f4b dfbd 7e12 773e
00000040: c909 61be 67d1 083e 9dfa debc dae6 97bd
00000050: e996 8dbe d323 94bd 459e 893e 5fe1 cbbd
00000060: 8cd3 503e eb29 7a3e 4b82 fd3c 3d9d f03d
00000070: 0d26 633e a674 933e 8da0 e63c 209f 183c
0.1768435 0.28588316 -0.22098021 0.04857275 -0.19168356 0.18301882 0.016666275 -0.007686664
0.22899354 0.25996056 0.15794368 0.005607745 -0.10318744 0.22470416 -0.1090306 0.24128148
-0.21976389 0.1336113 -0.027219111 -0.07417078 -0.27654198 -0.072333954 0.26878563 -0.099550955
0.20393199 0.24430053 0.030945918 0.11748741 0.22182484 0.28799933 0.028152728 0.009315282

net.3.weight f4 [64, 32, 3, 3]
00000000: a062 c43b 9e0f eeb9 4399 1f3d e48f 983c
00000010: 33b2 5cbd e06c 41bc ff55 17bb e163 42bd
00000020: 5c52 2d3d 5e6f 23bc de24 03bd 9d06 383d
00000030: bd05 6bbb 2a7f 3dbd b071 783c 9e27 233d
00000040: 4356 67bc d9f1 e0bc 486f 95bc 043d 3f3c
00000050: 67d3 40bd 6ea3 5f3d e4e3 7cbc 4325 81bc
00000060: ca8e 3d3d 5c65 bcbb dfcb 673c 8255 0abc
00000070: 4f01 553c b2f8 043c 8212 b83c c2b7 5bbd
00000080: bfea b1bc f250 0d3d f3d5 d138 ecd4 203b
00000090: 8d4a 40bc 2356 d0ba ddfa 263d 52d1 403d
000000a0: 1c3a 06bd 6888 1b3d 6cb2 013d 78ba 453d
000000b0: f19c 1d3c e3db ebbc eb54 5abc deae 903c
000000c0: 50c0 0f3d f6f5 03bb b5ce 21bd 7bf5 493d
000000d0: 6753 a4bc ee57 4dbd 2f29 893c f28e 7c3b
000000e0: f680 6bbd e8b3 2b3c ab4b 7abd ad7d 1ebc
000000f0: 79e8 ad3a 44a4 293d 2ee7 b33c 5770 9d3c
00000100: 97e9 6cbd a548 33bc 409e 2c3d a1d5 e8bc
00000110: 58f4 5a3d 99a6 463b 3480 64bc 9347 34bd
00000120: b5b5 5cbd c891 a63c 47b4 0dbd 2f39 04bc
00000130: 0280 3cbd 0750 353d 3b73 0c3d 69f5 d2bb
00000140: d8a0 3a3d 4759 39bd 4abe 063d 048a 333d
00000150: 1b4c e1bc b0da 353d e7b2 ac3c 4afc d43c
00000160: bc12 d53c 32d8 f7bc db63 b4bc c812 47bc
00000170: 6f50 67bd a146 e8bc 18b9 5bbd 0592 3a3d
00000180: fb70 5bbd 9e9f 2d3c ea42 3d3d 2e4b a1b9
00000190: f897 fe3c d5fa 093d 447f a03c 2c90 4ebd
000001a0: f0f5 c0bc 5e3a 0ebc 8b3c f53c ac29 4ebd
000001b0: f995 1cbc f17d b73c 22a6 5b3b a38a 60bc
000001c0: 8efe 4fbd 4c19 3cbd dfc0 183d 62d5 7fbc
000001d0: 41b3 493c 2613 4a3c 3675 633c 1460 48bd
000001e0: 7d3e 693c 7745 233c 12cb 6bbd 9f71 853a
000001f0: 7611 75bc 4353 1d3d 0c3f 8b3b 1bfa b83c
00000200: 3533 e23b 2cfc 25bd abd1 6cba f3e1 54bd
00000210: 9d5f 0b3d 8bb8 0b3d e166 d93c 4bbc 273d
00000220: 9abd 4b3c 3591 52bd fb67 26bd 6a41 42bd
00000230: 0a9f 51bc d43b 06bd 1da1 51bd 779d 78bc
00000240: 8c1c 58bd 7acb 5ebd 761f e33b b630 8e3b
00000250: b1dd 07bc 5433 2bbd 0cac ad3c c50d b33b
00000260: 6d82 05bb d5de 5b3d 79de 54bd ffdd c3bc
00000270: 8052 533d 1862 b5ba 5996 cb3b a336 9bbb
00000280: 9d83 173d 1984 babc 149d 2f3d e10a 813b
00000290: 7ed4 d6bc 8155 873c 940e ad3c b158 f13c
000002a0: 2ce5 7f3c 6443 1f3c e52c 863c 1e0f da3c
000002b0: 68cd 6abd 9f3c 113d e720 1cbd bd07 9abb
000002c0: 87e1 0dbd 3ee2 f1bc 9f30 6bbd f121 353d
000002d0: 3fca 49bd fec4 4c3c 23c5 20bd 3d24 283d
000002e0: 2e99 cd3c d274 ce3c dbad ca3c cdd6 cf3c
000002f0: 9583 383d e046 24bd 0da2 e53c 25b3 4cbc
00000300: 7536 0ebc cd0a 4abd 2485 2e3d 7d3b dd3c
00000310: 41a8 42bd 76ed df3c 12dd 873c 72b5 663c
00000320: 057e d8bc 1f22 3c3d caac 8c3c d318 cfbb
00000330: a3c2 173d b791 383d 743b de3c 1fbb d53a
00000340: 1af2 b23c 510b b63c 5aeb 133d 5fbb 9b3c
00000350: 4a02 a7bc 7a42 3fbd a8cf b33c 9d37 d5bb
00000360: d3a0 563d 76a1 b0bc 4135 1e3b af13 44bc
00000370: b70a 463c 5890 1cbd f9f1 2dbc 3a15 77bb
00000380: 33b8 373d c8c1 163c c6b7 0b3d ce36 01bc
00000390: 641d e9bc 096f 75bd cde7 5f3c c950 2cbd
000003a0: 246c 8bbc f61a 66bd d0fc 0cbc 56ae a6ba
000003b0: aa50 25bd 7e37 dbba d93f e43c 1912 3abd
000003c0: ee0d f5bc d6f1 2ebd dec7 34bd a304 48bd
000003d0: c7b0 283d 197a 2bbc dcb1 e1bc 4a32 20bc
000003e0: be64 6ebd 690f e5bc 82a3 43bd c63b 26bd
000003f0: e462 01bd 67a1 33bc 7a22 a9b8 6bfa 33bd
0.0059932023 -0.00045406533 0.03896452 0.0186233 -0.05388088 -0.011805743 -0.002309203 -0.047458533
0.042314872 -0.0099752825 -0.03201758 0.044928182 -0.0035861575 -0.04626385 0.015163824 0.039832704
-0.0141196875 -0.027459072 -0.01824154 0.011672262 -0.04707661 0.054599218 -0.015435193 -0.015764838
0.046278752 -0.0057493877 0.014147728 -0.008443238 0.0130008 0.008115934 0.022469763 -0.053642042
-0.021718381 0.034501024 0.00010005748 0.0024540974 -0.011736524 -0.0015894811 0.040766586 0.047074623
-0.03277026 0.037971884 0.031664297 0.048273534 0.009619937 -0.028791374 -0.01332591 0.017661508
0.035095513 -0.0020135618 -0.03950377 0.049306374 -0.0200593 -0.050132684 0.01674327 0.003853735
-0.057496034 0.010479905 -0.06110732 -0.009673518 0.0013268135 0.04141642 0.021960821 0.019218607
-0.057839956 -0.010942613 0.042143106 -0.028422179 0.05345568 0.0030311702 -0.013946582 -0.04401357
-0.053884227 0.020333186 -0.034595754 -0.008070274 -0.046020515 0.044265773 0.03428958 -0.0064379466
0.04556355 -0.045251157 0.032896318 0.043832794 -0.02750211 0.04439801 0.021081401 0.025999207
0.02600991 -0.030254457 -0.022020271 -0.012150474 -0.05647319 -0.028353991 -0.053643316 0.04554941
-0.053574543 0.010597138 0.046206392 -0.00030764326 0.031078324 0.033686478 0.019591935 -0.05043046
-0.023554772 -0.008680908 0.029936096 -0.05033271 -0.009557241 0.02239892 0.003351577 -0.013704929
-0.05077987 -0.045922562 0.03729331 -0.015614839 0.012310804 0.012333667 0.013882926 -0.048919752
0.01423609 0.009965292 -0.05756671 0.0010180956 -0.014957776 0.038409483 0.004249459 0.022580197
0.006903077 -0.040523693 -0.00090339285 -0.051973294 0.03402673 0.03411154 0.026538314 0.040951055
0.012435341 -0.05140801 -0.040626507 -0.047425665 -0.0127942655 -0.0327719 -0.05117904 -0.015174261
-0.0527616 -0.05439327 0.0069312407 0.004339303 -0.008292601 -0.041796997 0.021200202 0.005464288
-0.002037193 0.053679306 -0.05196998 -0.023909567 0.05159235 -0.0013838438 0.006212991 -0.004736738
0.03699075 -0.022768067 0.04287441 0.0039380644 -0.026224371 0.016520264 0.021125115 0.029461237
0.015618604 0.009720657 0.01637883 0.026618537 -0.057324797 0.035458203 -0.038117316 -0.0047006295
-0.034638908 -0.029526826 -0.057419416 0.044221822 -0.049265143 0.0124981385 -0.039250504 0.041050185
0.025097456 0.025202189 0.024741104 0.02537098 0.04504736 -0.040106654 0.028031373 -0.012493883
-0.008679976 -0.049326707 0.04260744 0.027005905 -0.04752374 0.02733491 0.016584907 0.014081346
-0.026427278 0.045930978 0.017172236 -0.006320098 0.037050854 0.04506084 0.027127959 0.0016306377
0.021843959 0.022222193 0.03611312 0.019010244 -0.020386834 -0.046694256 0.021949604 -0.0065068738
0.052399468 -0.021561366 0.0024140629 -0.011967584 0.012087516 -0.038223594 -0.010616773 -0.003770186
0.0448534 0.0092014745 0.034110807 -0.007886602 -0.028456397 -0.059920345 0.013666105 -0.04206923
-0.017019339 -0.056178056 -0.008605197 -0.0012716751 -0.04036013 -0.0016724912 0.027862476 -0.045427416
-0.029913869 -0.0427111 -0.04413592 -0.048832547 0.041184213 -0.010466122 -0.02755063 -0.009777615
-0.058201544 -0.02796145 -0.047763355 -0.04058435 -0.03158845 -0.010963774 -8.06497e-05 -0.04393999

net.3.bias f4 [64]
00000000: 7ee6 94bb 62bd 00bd 5aed 053c e346 043d
00000010: 3aa5 22bc ed3a 4e3c b6bf 853b 553d 463d
00000020: a5b2 b2bc c313 33bd 2b80 bebc 8f0c 87bd
00000030: 4cc1 97bd e5d2 abbc f412 c83c 800c 46bd
00000040: 33f9 463b aecd 373c 679d d9bc b5ac 2dbd
00000050: 5916 2abd 720d ecbb 7a0f e8bb 843a 00bd
00000060: 01d5 aa3b b40b 88bb f268 4bbd fbae 8fbc
00000070: 7deb 22bd fe47 2d3c d9df 06bd fa3a 003d
00000080: bf39 51bd 4f97 c9bc ea6a 08bc 80e7 21bd
00000090: 3a49 52bc e79b e0ba 8801 58bd 87bf 9f3c
000000a0: 9bdf 733c 3f08 f5bc 09ff b4bc 49ab 8fbc
000000b0: fc63 5e3a 5194 943d 63df 0f3d d629 a63c
000000c0: adef e6bc abce e3bc 0d6a ad3c 6746 183d
000000d0: 6f28 59bd 97fa b8bc 0830 8bbd 3595 f5bb
000000e0: dd13 4e3d 2486 5bbd 5924 40bd bc0a 3fbd
000000f0: 7914 103d 2329 7b3d 3f2d 13bd d11e cfbc
-0.0045440784 -0.03143061 0.008174265 0.032294165 -0.009927088 0.012587291 0.0040816916 0.048398335
-0.0218137 -0.043720018 -0.023254475 -0.06594192 -0.07409915 -0.020974586 0.0244231 -0.048351765
0.0030360937 0.011218471 -0.026564313 -0.042401034 -0.04152522 -0.0072037512 -0.007081923 -0.031305805
0.0052133803 -0.0041517857 -0.04966063 -0.017539492 -0.03977536 0.010576246 -0.03292832 0.031306244
-0.05108046 -0.024608282 -0.008326272 -0.039527416 -0.012834841 -0.0017136306 -0.052735835 0.019500507
0.014884855 -0.029911159 -0.022094266 -0.01753773 0.0008483527 0.072548516 0.035125148 0.02028362
-0.028190458 -0.027808508 0.021168733 0.037176516 -0.053017076 -0.022580428 -0.067962706 -0.0074945935
0.05031191 -0.053594723 -0.046909664 -0.046641096 0.035175774 0.061318528 -0.035931822 -0.02528325

net.7.weight f4 [64, 1792]
00000000: 05ab c7bc 24f9 9d3c 55c8 b8ba 5b59 07bc
00000010: 4916 813c 9813 083b ba51 883c 4b96 82ba
00000020: 1fca 303a f667 393c 1cd6 873c 47a8 1ebc
00000030: aa07 cf3b 1f1f 173b a9f9 223c 77f9 b9bb
00000040: 9efb 21bc 8a80 833c 8a09 eb3b 43b1 ab3a
00000050: 73fc 47ba 2bec 89bc 7a9d 04bc 1437 253b
00000060: 3283 88bb b863 a4bc 9600 b13c fb4f 8bbc
00000070: ae63 b3bc 93d1 643c 776b 46bc 0fbd a3bc
00000080: 3d61 e9bb 0fc9 c33a 4964 bcbc 7ff6 96bc
00000090: a282 ab3b be4f cbbb 8847 0ebc 1390 81bb
000000a0: 6ae5 debb 81e2 a0bc 334d d5bc d5b8 a839
000000b0: 86dc 93bc 5e6c 19bb a6f2 88bc a2bb 38bc
000000c0: c938 06bc ab37 50bc ad07 d9b9 5993 d8bc
000000d0: 40b7 56bc 67cc 88bb fdc8 07bc 9237 083b
000000e0: aad1 183c 19d6 55bc 91ab 2dbc ecea 13bc
000000f0: f7e6 0ebb e3aa 83bc 07eb cfbb c01b 8dbc
00000100: ef24 bb3b 1e28 f63b 4879 00bc 8b14 51bc
00000110: bf2f 14bc 1895 99bc 2399 4bbb 53ea 32bb
00000120: 1a30 35bc b703 2f3c dcfc c2bc 8d7b a9b9
00000130: 3054 933b 5c15 babc abfe 213c 9f5f b83b
00000140: 3842 48bb 25ce 8cbc 0696 0ebc 7aae 40bc
00000150: ca1a 703c 6e4f a7bb dca7 0bbc d0f0 323c
00000160: 2c95 babb 9d92 003c ad32 873c 0aba debc
00000170: c72f 263c cd15 1abc 9977 15bc 2631 7d3c
00000180: c295 4dbc 029f 91bc f3a0 a8bc 9ae2 6dbc
00000190: feb4 02bb b043 963b 78be 303b a3da a83b
000001a0: 8c25 22bc 07bf 88bc 801a d23b 5554 d03b
000001b0: 7848 cebc fc31 6dbc baca d43b 5545 26bc
000001c0: caeb a4bc 08ea 9abc 2192 3f3c 01ef 63bc
000001d0: f05e bdbc 07c5 afbc 8f36 853c e09c fdbb
000001e0: 7cca 99bc 9a23 8bbc 413b 26bc 3e66 2cbc
000001f0: 3b9e 44bc 1bb3 b6bb 1957 c8bc 78ef a0bc
00000200: c9d9 f1b9 5300 69bb 84b6 d83b c1c0 783b
00000210: 263a 25bb 4704 c4bc 53f1 c13b bfee 053b
00000220: 998e 9ebb d132 843b 06a3 c6bc a6ac 433c
00000230: 92e3 84bc c421 883b 9850 9a3b 3194 cebc
00000240: 775b 833b 2de7 debc 45da 623b 5315 2b3b
00000250: ebad 5abc 2a7d c13a 1f8b 773c d266 16bc
00000260: e92e 22bc 6297 17bc cea4 59bc b77a 7ebc
00000270: aa49 ddbc 0df5 773b 5e16 88bb 6bd4 dfbc
00000280: 2378 d83b 928c 80bc bee7 3dbb 52aa 293c
00000290: e993 a0bc 746d 783c f84b eeba 4f2d 51bc
000002a0: adef 163c e988 193b 8384 653b fbfd 753c
000002b0: 58fc 2bbc 94c3 853b 3fbe 7bbc 515b 5abc
000002c0: f758 b9bb f8a7 9f3b cc82 5c3c 0d0f 8e3b
000002d0: d26d 77bc 3301 543c 2b1e d7bc 7a9d dbbc
000002e0: 775d d6bb b9b0 ea3b c5c8 3cbc 75a1 a0bc
000002f0: 0851 18bc dd0b 42bc 74ff 05bc 137b 48bc
00000300: 1e42 f9bb b3a0 a4bc 91f9 f6bb 2f4e 153c
00000310: 160a 34bc 7a22 7639 9f29 39bc 7ed8 bd3b
00000320: 413e a2bc 4a46 c03b cbf5 93bc 0945 7b3b
00000330: 334d e7bb fdff 09bc 099a 32bc e52d 70bc
00000340: e4c1 cdbc fc7a d4bb 306b 32bc 55ff 613c
00000350: 0f43 2f3c ff7d d1bc 1c73 07bc 01e4 a9bb
00000360: 0880 f2bb 4f9e 71bc 7fa3 96bb 6cc5 b93a
00000370: e381 65bc 8b97 15bc 57d6 b5bb b9e4 5a3c
00000380: a8e5 d1bc 8785 82bc d28d e4bb c511 dabb
00000390: 9eb2 bcbc e88b 8cbc ef8f c5bc cbed 94bc
000003a0: e990 463c 962f 7f3c b14f 103c 0e2a 7f3c
000003b0: 5224 cebc 5155 0dbc 6cfe f3bb ec61 643b
000003c0: 9392 383c 2e4f 6cbc 55ee ce3b 86a6 d6ba
000003d0: 3a7e 2f3c b163 50bc 8531 753c dc57 aa3b
000003e0: 2ee4 9b3b cd03 613c 428d 72bc a278 aa3b
000003f0: 3005 a0bb 32f8 683c 9549 ba39 d40d b3bb
-0.02437354 0.019283839 -0.001409779 -0.00826105 0.015757697 0.0020763632 0.016640533 -0.0009963004
0.00067439856 0.01131629 0.016581587 -0.009683675 0.0063180523 0.002305932 0.009947219 -0.0056754905
-0.00988665 0.016052503 0.007172768 0.0013099093 -0.00076288654 -0.016836246 -0.008094186 0.002520983
-0.0041660303 -0.02006708 0.021606725 -0.017005911 -0.021898117 0.013965982 -0.012110583 -0.019987611
-0.0071221874 0.001493724 -0.022997038 -0.018428085 0.0052340785 -0.0062045744 -0.008684047 -0.0039539426
-0.0068022506 -0.019639255 -0.026037788 0.00032181168 -0.01804949 -0.002341054 -0.016717266 -0.011275204
-0.00819225 -0.012708585 -0.00041395184 -0.026437448 -0.013105214 -0.0041747573 -0.008287665 0.0020785076
0.009327332 -0.013051533 -0.010599987 -0.009028178 -0.0021805146 -0.016072696 -0.006345156 -0.017225146
0.00571119 0.0075121066 -0.007841416 -0.0127612455 -0.009044587 -0.018747851 -0.0031066618 -0.0027300313
-0.011058832 0.010682038 -0.023802213 -0.00032326244 0.00449612 -0.022715263 0.009887378 0.0056266333
-0.0030557048 -0.017188141 -0.008702761 -0.011760348 0.0146548245 -0.0051059043 -0.0085239075 0.010921672
-0.005694052 0.007847455 0.016503656 -0.02718832 0.010143227 -0.009404612 -0.009122753 0.015453612
-0.012547912 -0.017776016 -0.020584559 -0.014519358 -0.0019944306 0.0045857057 0.0026968997 0.0051530167
-0.009896647 -0.016692651 0.0064118505 0.0063577094 -0.02518104 -0.014477249 0.0064938935 -0.010148366
-0.020131964 -0.018910423 0.011692555 -0.013911963 -0.023116559 -0.021456255 0.016261367 -0.007739648
-0.01877331 -0.01698475 -0.010145963 -0.010522423 -0.012000616 -0.0055755503 -0.024455594 -0.019645438
-0.00046129365 -0.0035553172 0.0066135544 0.0037956687 -0.002521166 -0.02392782 0.0059186607 0.0020436493
-0.0048387763 0.004034378 -0.024247658 0.011943018 -0.016221795 0.004154416 0.0047093146 -0.025217148
0.004008706 -0.027209843 0.0034614962 0.002610524 -0.013347129 0.0014762033 0.015108853 -0.009179788
-0.00989888 -0.009252401 -0.013283921 -0.015532187 -0.027012665 0.003783527 -0.004153057 -0.027322968
0.0066061183 -0.01569203 -0.002897724 0.010355549 -0.019601779 0.015162814 -0.00181806 -0.01276715
0.009212417 0.0023427552 0.003502161 0.015014167 -0.010497175 0.0040821526 -0.015365182 -0.013327436
-0.0056563574 0.0048723184 0.013458919 0.0043352903 -0.015101867 0.012939739 -0.026259502 -0.02680849
-0.0065419036 0.0071621803 -0.011522477 -0.019608239 -0.009296663 -0.011843649 -0.008178581 -0.012236374
-0.0076067587 -0.020096159 -0.007537075 0.009112879 -0.010988733 0.00023473232 -0.011301427 0.00579363
-0.019805076 0.005867754 -0.01806154 0.0038340709 -0.0070587634 -0.008422849 -0.010900983 -0.01465938
-0.025116868 -0.0064843874 -0.010889813 0.013793786 0.01069714 -0.025572775 -0.00826719 -0.005184651
-0.0074005164 -0.014747216 -0.004597127 0.0014173216 -0.014008018 -0.009130369 -0.005549233 0.013360196
-0.025622204 -0.015932811 -0.006974914 -0.0066549503 -0.02303439 -0.017156556 -0.024116484 -0.018179795
0.01211951 0.01557531 0.008808062 0.015573991 -0.025163803 -0.008626298 -0.007446101 0.0034848405
0.011265415 -0.014423175 0.0063150325 -0.0016376532 0.010711247 -0.012719081 0.01496542 0.005198462
0.0047574257 0.013733816 -0.014804186 0.005202369 -0.004883431 0.014219331 0.00035531507 -0.005464295

net.7.bias f4 [64]
00000000: def5 753c 1fb4 ff39 1527 16bc a68f 32bb
00000010: 1513 c2bc a4b6 163d af7d 4c3d 5fe9 6a3b
00000020: 441c 613c 86e4 adbb 772b 9fbc 857e 823c
00000030: 0587 b4bc f584 aebb 4dcf 87bc 0a8f d63c
00000040: eba2 533c 3415 433d 31c5 c4bb e218 c1bc
00000050: c9f7 dc3b 163c eb3b e999 c5ba 5b0b a1bb
00000060: 47e1 1e3c 5d29 543b c731 bfbc 803e a6bc
00000070: 6ae2 243c 0c2e 7bbb 1fbb af3c 47c8 02bc
00000080: 1a1b d53c 5451 c8bc f81c dabc c946 16bc
00000090: 581f 003d 70cf 523d d16e 383c c4c4 b0bb
000000a0: e679 74bc 2838 853c 2cb6 3f3c 89c7 c03b
000000b0: 7f6e 9ebc 05c0 c2bc bc9c 04bc 7c16 91bc
000000c0: 26ad e2bc 18d2 dcbc 9aed 06bd 2f84 013c
000000d0: 1a2b 50bc 8713 c53b ee98 6b3b f23c afbb
000000e0: 2bd5 913c 8775 28bd 7b5e 163d 09dc b0bc
000000f0: 4c1c 9fbc d2de 9fbc a6cf 85bc f845 bbbb
0.015012233 0.0004877159 -0.009164591 -0.0027246266 -0.02369074 0.036795273 0.04992455 0.0035844666
0.013739649 -0.005306783 -0.019429905 0.01592947 -0.022037039 -0.0053259083 -0.01657834 0.026191253
0.012917261 0.047627643 -0.0060049524 -0.023571435 0.0067434055 0.0071787937 -0.0015075776 -0.0049146838
0.009697265 0.0032373287 -0.023339165 -0.020293474 0.010063747 -0.0038327007 0.021451531 -0.00798232
0.0260139 -0.024452843 -0.026625142 -0.00917215 0.03127989 0.05146736 0.011256889 -0.00539455
-0.014921641 0.016262129 0.011701148 0.0058831614 -0.019339798 -0.023773203 -0.008094009 -0.017710917
-0.027670454 -0.02695565 -0.03294144 0.00790505 -0.012705589 0.0060142907 0.0035949307 -0.0053478414
0.017801842 -0.041127708 0.036711197 -0.021589296 -0.019422673 -0.019515429 -0.016334366 -0.005715128

net.9.weight f4 [6, 64]
00000000: 74a1 80bb 1d41 27be 0106 a0ba c9ec cbbd
00000010: eb66 6f3d 4c70 14be 69ff a9bc c199 123d
00000020: 4409 a23d 90b3 7fbd 054c 63be 34f4 b53d
00000030: 6f55 2e3e e70c 673c b24d 7bbc 5783 2a3e
00000040: 2d39 bc3d c2ce 06be 7229 a63d a357 0a3d
00000050: 42f5 6cbc c5d5 763c 39ac 0bbd bacf e0bd
00000060: 3b11 cf3d 5afc e2bd 0f68 b53d dd48 dd3c
00000070: 8b4f 89bc 1ee8 fd3d 8a41 cb3d c7b7 f93b
00000080: 026d 633d 6ed4 ca3b 1355 833d 81df e03c
00000090: 1dd9 c4bc 4a59 3c3e 8743 cb3d 9a04 113c
000000a0: ec02 513d d863 71bd ede0 8cbd 6616 18bd
000000b0: 0797 d53c c251 d0bd 0c28 64bc 1106 973d
000000c0: 3397 153c 5f69 e03c 97eb dbbd 27b4 2c3d
000000d0: bb96 0abc 1c41 533c 78e3 c8bd e098 4dbe
000000e0: c946 c6bd dc85 46bd 9b3c 3cbe e3a8 a4bc
000000f0: ce43 0bbd 03ea af3d 35c6 bdbd c393 8abd
00000100: 907b bebc 9f97 90bd 5851 a53c ff04 ac3d
00000110: 5971 6e3d 3a1e 3cbe 5f33 7c3d 0c46 56bd
00000120: 709e b7bd b9d1 4b3c d0cb eb3c 9cb8 d03d
00000130: bcf7 25be 17ac debd d850 813c f9a8 5bbe
00000140: 01cc 723d 4e3a 90be 749c a6bd a66d 093d
00000150: 7c12 95bd 41cb ddbd 456b ef3c 5b5a d33d
00000160: 5039 b03c aaea 1abc f2a8 ccbd b770 fc3c
00000170: 6b20 d83d 4b2a e53c 3f1e 4bbe 2374 dbbd
00000180: 6f83 40bd 8cfc 95bd 77b9 543d 0ea2 113e
00000190: 49e4 d13d c8d3 14be c5d8 d53d 9142 0fbc
000001a0: 0374 933d 747f 0bbd f2a9 50b9 ccf5 aebd
000001b0: 5b7f a43d 1bda 7a3d 70f2 f2bd fc61 bb3d
000001c0: 239a 8bbc fa08 65bd d9a8 aebd 9b02 013e
000001d0: 7fa3 9e3d 94f2 bb3d ab93 f5bc e32c cc3b
000001e0: ecba a63d 1920 0fbe 187a 12bc d48e 1ebb
000001f0: c8d3 d43d e7a7 913d 5742 073e 8f37 c8bc
00000200: 43e5 afbb 4b48 6cbd e90f b9bd ff5f 83bd
00000210: a030 00bd 5e76 6bbd 3732 d1bd daa4 6fbd
00000220: 8ace 2f3d cf6e a3bd b373 b8bd 94e4 083d
00000230: ada6 a93c 920c 7a3d 231e e7bc 7738 263d
00000240: 8eea 8abd 6192 8dbd d697 f33d 90b7 0b36
00000250: 5b60 9ebc 6b50 e3bc 00ce c83d 4bc7 75bc
00000260: bf09 9f3d 4bf3 b9bc 0e66 3d3d 59a3 36be
00000270: 34de 673d 75c0 8ebe d712 f3bd 80eb 523d
00000280: 2991 823d 115b 6f3c 4886 e33d 30fc 0fbe
00000290: b036 ae3b d7a2 2dbd 8585 bd3d 3b2d aabd
000002a0: db1f ba3d 0bb1 9d3d 17d9 c63d 7e5e d9bd
000002b0: 69da 01be c055 423d b1c9 f43d 73eb b3bd
000002c0: ad41 c73d e9a0 b53d e1c0 9f3d 22a5 e53d
000002d0: b1a7 043d 9348 313c 30bc 193d 8508 98bd
000002e0: 90fd dfbd cc0a f13d 0316 aabd dd9e e1bb
000002f0: 76c7 bb3d a014 a3bc 4388 96bd 6aca ba3d
00000300: f262 d4bd a1ba a7bd 339c 81bd 86fe 943d
00000310: 86b0 123d 657a c53b 6180 4b3d 2d11 de3d
00000320: e30d 2abd cf24 ac3b 9279 a43d e48d c0bc
00000330: 047f 4ebe f4fb a33d ff01 8dbd 0463 113c
00000340: b13d 893d 0613 053d 8253 dfbd f757 62bd
00000350: 3e76 993c 9eba cdbd 25e9 8abd 94ef babc
00000360: cfa0 5bbd 3888 d63d 50e2 d83d 9167 113e
00000370: 2b2d cf3c 49ff 013e fd31 e0bd cfdc 7dbd
00000380: 8991 f0be 0b79 613d 934a f3bd f15d c73d
00000390: 26e2 e8bd 6592 2cbc 868a 903d 952e e0bd
000003a0: 902c b7bb d1e6 163d 9e70 bcbd a923 f4bd
000003b0: 7a25 bdbd 915f e23d 181b 0a3e b448 78bc
000003c0: 15b2 953d 9220 353d 2970 63bd 2a8f e0bd
000003d0: 074e 9f3d 286a 21be 1d75 14bd 5ba9 46bd
000003e0: c265 1abd 2b02 f63d d785 973d b3f3 633c
000003f0: d7a4 b53d dc9e 7c3d 294a d73d 6299 37bd
-0.0039254967 -0.16333432 -0.001220882 -0.099572726 0.05844776 -0.14495963 -0.020751672 0.035791162
0.079119235 -0.062427104 -0.22196968 0.08884469 0.17024778 0.014102197 -0.015338348 0.16651665
0.09190593 -0.1316481 0.08113374 0.033774983 -0.014462771 0.015065615 -0.03409979 -0.10977121
0.10110708 -0.110832885 0.08857738 0.027012283 -0.016761562 0.123977885 0.0992461 0.007620785
0.05552388 0.0061898744 0.06412711 0.027450325 -0.024029309 0.18393436 0.09924989 0.008851195
0.051028177 -0.05893311 -0.06878839 -0.037130736 0.026072992 -0.10171844 -0.013925564 0.07374204
0.009130287 0.027393995 -0.107382946 0.042163994 -0.0084587885 0.012893941 -0.09809011 -0.20077848
-0.0968147 -0.048467502 -0.18382494 -0.020100063 -0.03400021 0.08589556 -0.092663206 -0.067664646
-0.023252279 -0.070601694 0.02018039 0.083993904 0.058213565 -0.18370906 0.06157243 -0.052312896
-0.089657664 0.0124401385 0.028783709 0.101914614 -0.16207784 -0.10872667 0.01578562 -0.21451177
0.059276585 -0.28169483 -0.0813531 0.033551835 -0.07278916 -0.10829783 0.029225955 0.10319968
0.021511704 -0.009455362 -0.09993161 0.030815465 0.10553058 0.027974268 -0.19835757 -0.10715511
-0.047000345 -0.0732356 0.051934686 0.14221975 0.1024862 -0.14533913 0.10441736 -0.008743898
0.07199862 -0.034057096 -0.00019899735 -0.08542976 0.08032104 0.061243158 -0.118626475 0.091495484
-0.017041272 -0.055916764 -0.08528299 0.1259865 0.07746028 0.091771275 -0.02997764 0.006230937
0.08141121 -0.13977088 -0.008940242 -0.002419402 0.103919566 0.07112103 0.132089 -0.024440555
-0.0053679063 -0.05768613 -0.09036238 -0.06414794 -0.031296372 -0.05748593 -0.10214656 -0.058506824
0.04292158 -0.079801194 -0.09006443 0.033421114 0.02070936 0.061047144 -0.028212612 0.040581193
-0.06783019 -0.06912685 0.11894195 2.0819461e-06 -0.019333055 -0.027748307 0.098049164 -0.015001128
0.07765531 -0.022699019 0.046239905 -0.1783575 0.056608394 -0.27881208 -0.11868828 0.05149412
0.06375343 0.014609114 0.111095965 -0.14061046 0.005316578 -0.042391624 0.092539825 -0.08309408
0.09088107 0.07699784 0.09709375 -0.10613726 -0.12680973 0.04744506 0.11952532 -0.08785143
0.097293235 0.08868582 0.078004606 0.11213137 0.032386485 0.010820526 0.037532985 -0.074235
-0.10937035 0.117696375 -0.0830498 -0.006885393 0.091689035 -0.019907296 -0.073502086 0.09120639
-0.10370435 -0.081898935 -0.06328621 0.07275109 0.035812877 0.0060265535 0.04968298 0.1084312
-0.04151715 0.0052534114 0.08031 -0.023505159 -0.2016564 0.080070406 -0.06885146 0.008873705
0.0670122 0.032488845 -0.109046 -0.05525967 0.01873314 -0.1004536 -0.0678275 -0.022819318
-0.053620156 0.104752004 0.10590041 0.14199664 0.025290092 0.1269504 -0.109470345 -0.061978158
-0.46986035 0.055047076 -0.11879458 0.09734715 -0.113712594 -0.01053295 0.07057671 -0.10946385
-0.005590029 0.036841217 -0.092011675 -0.11920864 -0.09235664 0.11053384 0.13486898 -0.0151540525
0.07309357 0.044220515 -0.055526886 -0.109648064 0.077785544 -0.15763152 -0.0362445 -0.048501354
-0.0376947 0.12012132 0.07398575 0.013913083 0.08869331 0.061674938 0.10512192 -0.04482401

net.9.bias f4 [6]
00000000: 804a 6e3d 7e21 753d 2b71 48bc 8c2f a6bd
00000010: c6da a03d 8c80 e2bd
0.058176517 0.059846394 -0.012234013 -0.081145376 0.07854228 -0.110596746
